TFLiteModel_bot/chatbot.tflite (tflite, 30864 bytes, 6 tensors)

arith.constant f4 [128]
000000 4d 81 08 3e 2d 35 a7 3d cd 46 28 3e fc c9 3d 3e
       0.13330574 0.08164439 0.16433258 0.18534082
000010 3c a1 f7 3d 8e e2 3b 3e 2e 5f 69 bc c0 aa 2e 3e
       0.120913 0.18348143 -0.014243884 0.17057323
000020 6e f2 12 be 5b a5 53 3d c6 c6 94 3b 12 6c 75 3c
       -0.14350292 0.051671367 0.004540297 0.014979379
000030 71 1a 2c 3d 4b c7 ee ba 0b 0b ff bd c4 2a 8f bc
       0.042017404 -0.0018217353 -0.12453278 -0.017476447
000040 08 bf 41 3d 78 0e 06 3d 6b e3 d7 3c f3 8a e6 3d
       0.047301322 0.032728642 0.026353559 0.11256971
000050 0a 4d 8d 3c ab d5 f7 3d 3a ce 39 bb 28 47 f5 3d
       0.01724865 0.12101301 -0.002835168 0.119764626
000060 0f 3f f6 bc b1 d1 11 3c f8 af a2 3d a9 4c c0 bd
       -0.030059366 0.008900092 0.079437196 -0.09389622
000070 02 0e d3 3c 92 47 0e 3d 5e d8 81 bc ea b8 e7 3d
       0.025763515 0.034736224 -0.015850242 0.113145664
000080 b9 1d cc 3d 4c ab a3 3d f5 fc 09 bc 15 9a f9 3c
       0.09966607 0.07991657 -0.008422126 0.03046898
000090 db 2e dd 3d 0f f4 c1 3c ed 31 f7 3d 05 69 cc 3d
       0.107999526 0.023675947 0.120700695 0.099809684
0000a0 ab 3f 68 3d 96 3e 38 3e 25 ce 83 3d 2f 98 50 3e
       0.056701344 0.17992625 0.06435803 0.20370553
0000b0 00 51 d4 3d 3d 35 6b 3d 21 d2 70 3d 52 18 a4 3a
       0.10367012 0.05742382 0.058794145 0.0012519455
0000c0 ea 4f 8b 3d dc 1a 0a bc 86 34 92 bd e8 a1 2b 3e
       0.06802352 -0.008429255 -0.07138924 0.16760981
0000d0 cf 68 ce 3b 30 76 51 3b ca 79 24 3e 8f 89 a1 3d
       0.0062991153 0.0031961314 0.16062084 0.07887565
0000e0 a9 62 09 3d 2c 01 2e bc 58 2f 95 3d 13 77 bb 3d
       0.033541355 -0.010620397 0.07284421 0.09153571
0000f0 d1 cb 13 3d a0 23 c6 bd 96 d5 ba 3d c4 80 f2 3d
       0.036083046 -0.09674764 0.091227695 0.11840966
000100 e2 3c 90 bc 7b 2b 9e 3c 15 40 81 3b 19 73 69 3d
       -0.017607156 0.019307842 0.0039444068 0.05699453
000110 cc c6 fe 3d 56 6c 24 3d c9 c5 4a 3e 8e a0 37 3c
       0.12440261 0.04014238 0.19802012 0.011207713
000120 af 77 aa 3d 9d e1 37 3d b6 b1 ac 3c 43 bd 78 3c
       0.08323609 0.044892896 0.021080833 0.015181842
000130 4f f3 06 3e bc e8 92 3b be af 30 bd d2 ce 42 3e
       0.13178752 0.0044833105 -0.04313635 0.19024208
000140 e0 1d 0c bc 11 90 23 3d fa 3b f7 3d 68 a4 24 3e
       -0.008552045 0.039932314 0.120719865 0.16078341
000150 2e 86 5d 3d 10 5c db 3b 29 4a 40 3d b5 a6 c4 3d
       0.05408304 0.0066943243 0.046945725 0.09602109
000160 3b 0a 66 3c 97 d1 0e 3e 0b dd 0e 3e 91 b4 49 3e
       0.014040525 0.1394714 0.13951509 0.19697787
000170 62 fe 9d 3d e9 c6 37 bc 51 b7 be bd 9b 60 69 3d
       0.07714535 -0.0112168575 -0.093123086 0.056976896
000180 6f 0c 46 3d 73 cf 7b 3c d4 ac c7 3d c2 61 42 3d
       0.0483517 0.015369284 0.09749761 0.04745651
000190 ae 67 fb 3d 39 33 99 3d 43 03 bc 3d 5f 9d e8 3c
       0.12275635 0.07480473 0.091803096 0.028395353
0001a0 20 0e 4e 3d 23 b7 f7 3d 1b 8d 8d 3c 2b d2 2c 3e
       0.05030644 0.120954774 0.017279198 0.16877048
0001b0 dd e0 f0 3d a8 ca 24 bd c7 71 92 3d 04 a7 9e bd
       0.11761639 -0.04023233 0.071506076 -0.077466995
0001c0 88 d6 de 3d 81 c3 25 3e dc dd f9 3d 5a 91 15 3e
       0.10880762 0.1618786 0.122005194 0.14606228
0001d0 5f ef 55 3d 0d 09 ae 3d cb 93 87 3d 09 c6 1b 3e
       0.052230235 0.0849782 0.06619986 0.15212263
0001e0 59 7b 87 3c 6c d1 e4 3d e3 e7 0c 3d 73 46 3d bd
       0.016538309 0.111727566 0.034400832 -0.046209764
0001f0 1a 39 b5 bc 03 7a 9e 3d 6f c8 08 bd f1 19 f7 3d
       -0.022121955 0.07738116 -0.033394273 0.12065495

arith.constant1 f4 [64]
000000 5b 54 16 3e 28 96 e0 3d fb 3d 28 3e e6 5c a2 bd
       0.14680617 0.1096614 0.16429894 -0.07927875
000010 be c4 f0 3d 06 d5 1e 3e 2e 18 ec 3d bf fc 87 3d
       0.117562756 0.1551095 0.115280494 0.06640004
000020 fb f2 8f 3d 86 97 3e 3e 36 56 0b 3e d3 82 2d 3d
       0.07028767 0.18612489 0.13607106 0.04236109
000030 cd d0 b6 3d 83 6b f9 3d 82 51 7f 3d 9a d2 85 3d
       0.08926544 0.12178709 0.06233359 0.0653431
000040 66 59 bd bd 9e 3a 34 3e 29 77 9a 3d 4a 52 23 3e
       -0.09245567 0.17600486 0.07542259 0.1594936
000050 37 53 97 3d b3 14 ef 3d 72 b0 3f 3e f2 b6 47 3d
       0.07388919 0.1167387 0.18719652 0.048758455
000060 53 2e 0d 3e 05 74 2f 3e cb 0c b4 3d 22 2e c6 3e
       0.13787203 0.17134102 0.087915026 0.38707072
000070 33 ac 73 3e 91 b3 30 bc 30 cb d7 3c 94 58 05 3d
       0.23796158 -0.0107849995 0.026342005 0.032555178
000080 ce 56 21 3e 52 fc 7e 3e 64 79 d4 3d 1f 11 c0 3d
       0.1575577 0.2490094 0.10374716 0.093782656
000090 8b 20 15 3e 24 ba 18 3e 92 44 3c 3d 1a 43 c8 3d
       0.14563195 0.14914757 0.04596383 0.097784236
0000a0 1e 30 47 bb aa d3 a2 3e 2c fd 1b 3e 14 89 2e 3e
       -0.003039367 0.31802112 0.15233296 0.17044479
0000b0 89 11 2f 3e f0 e2 2f 3e cb c4 34 bd ee 3d 27 3e
       0.17096533 0.17176414 -0.04413299 0.16332218
0000c0 89 9b 5d 3e 77 d4 9b 3e 92 ba ba 3c 55 2a 91 3d
       0.21641363 0.30435535 0.022794042 0.07088152
0000d0 44 33 1f be a8 97 b0 3e c9 4a c2 bc c6 d8 0b 3d
       -0.155469 0.34490705 -0.023717301 0.034142278
0000e0 ce 02 ce 3d 2a 99 42 3c 7c 2e 7f 3e 0e a6 ca 3d
       0.10059129 0.0118773375 0.24920076 0.09894954
0000f0 19 5b 5c 3d 52 b8 93 3d 5c 9b 7a 3d 7a c0 6e 3e
       0.053797815 0.07212891 0.06118332 0.23315611

arith.constant2 f4 [11]
000000 c8 89 5c bd 66 9f 0a 3e 72 dc 34 be e8 61 b9 3d
       -0.053842336 0.13537368 -0.17662218 0.09051877
000010 7c a8 89 be 56 70 d9 be e0 1a 99 3e 35 22 bb 3e
       -0.26886356 -0.42468518 0.29903316 0.36549535
000020 6d 42 2e be 95 e5 f2 3d db 6a ae 3d
       -0.17017527 0.118601955 0.08516475

arith.constant3 f4 [11, 64]
000000 12 7f bf be 83 f5 87 bd c2 15 c5 be 82 2d 5d 3c
       -0.37401634 -0.066386245 -0.38493162 0.013499619
000010 14 9d 65 be 9f 77 d3 be fb 99 99 bd 95 7b d8 3e
       -0.22423202 -0.413022 -0.075000726 0.42281786
000020 e2 e1 a6 be 0b 54 2b be 80 7e f7 be e3 4e 1c 3f
       -0.3259421 -0.16731279 -0.483387 0.6105787
000030 ea 2e f8 be f1 cd 04 3f 03 bc cf bd 49 79 4b 3f
       -0.48473293 0.5187674 -0.10143282 0.7948194
000040 34 96 b6 be e3 f5 eb be 26 85 89 3e c7 ab c8 3e
       -0.3566147 -0.46086034 0.26859397 0.39193556
000050 a2 b4 e8 3d 84 6e f9 3e a9 17 77 bd ab 67 ba be
       0.11362578 0.4871713 -0.0603253 -0.36407217
000060 fa ef 8a be 13 52 d0 be 31 50 8e be f3 cf 8e be
       -0.27136213 -0.40687618 -0.27795556 -0.27893028
000070 e6 a5 0b bf 31 b9 06 3f 6c 36 05 be 03 41 0e 3f
       -0.54550016 0.5262633 -0.13009042 0.5556795
000080 69 a6 a3 bd c4 50 e3 3e c3 2b da 3e 87 78 b1 3e
       -0.079907246 0.44397557 0.42611513 0.34662268
000090 98 a3 9a be 51 af 1e bf 95 dd e7 3e f3 2f 22 bf
       -0.30202937 -0.6198626 0.4528624 -0.63354415
0000a0 a3 0e 3f be d0 6a b8 bd 93 a0 bc 3e 9f 25 cc be
       -0.18657927 -0.09004748 0.36841258 -0.39872453
0000b0 36 99 62 3e 2b f9 bd be 1e 5e 01 3f 91 5b 46 be
       0.22128758 -0.37104163 0.50534236 -0.19370867
0000c0 1f f3 00 bf cd 36 f6 be 1a 28 2e 3e 04 53 19 3f
       -0.50370973 -0.48088685 0.17007485 0.59892297
0000d0 54 ac 04 be f0 be 92 3e dd f9 53 be 63 7c d4 be
       -0.12956363 0.286613 -0.20700784 -0.4150115
0000e0 c0 3f e3 3e fd 9a 8c be 73 57 08 bf 71 cc 9d 3e
       0.44384575 -0.27461997 -0.53258437 0.3082004
0000f0 2f d8 47 3e 16 d2 ac 3e 7e e0 e4 3e de 87 d9 be
       0.19516061 0.33754033 0.44702524 -0.4248647
000100 62 85 bf be b0 32 90 bd cd 31 51 3e 74 77 ac be
       -0.3740645 -0.07040918 0.20429154 -0.33684886
000110 b8 2e 26 3e 7c 82 0f 3f e0 b4 29 3f f0 36 b3 3c
       0.1622876 0.5605848 0.6629162 0.021876782
000120 0c da 24 3f 09 f3 55 3e eb 67 bd 3e 07 d1 e8 be
       0.64395213 0.20893492 0.36993346 -0.45471975
000130 76 fa 0f be 6f 64 90 be 76 40 67 be 8f 01 36 3f
       -0.14060387 -0.28201625 -0.22583184 0.7109613
000140 02 39 a7 be e5 eb e7 3e 4e ad d8 3d 00 6e 53 be
       -0.3266068 0.4529716 0.1057993 -0.2064743
000150 27 97 dc be fb 90 8b 3d 2c 32 bd be 4b ee 0a 3f
       -0.4308407 0.06814762 -0.3695234 0.54269856
000160 e9 6d 0c 3f 47 f0 02 bf 5a 13 b1 be fd 7b 0b 3f
       0.5485521 -0.51147884 -0.34585077 0.54486066
000170 a9 bc 05 bf d1 05 2c be 09 1d 93 3e 9c 80 c0 be
       -0.52241 -0.16799094 0.2873309 -0.3759812
000180 3d d7 27 be ad dd a8 be 6c dd 98 be 6e 2b bc 3e
       -0.163907 -0.32981625 -0.2985643 0.36751884
000190 33 3d d5 be 87 fa c9 be 4d 2e 17 3f 56 3a 19 3e
       -0.41648254 -0.3944895 0.59055024 0.1496366
0001a0 05 b8 95 3e 00 93 f1 be f8 31 e3 be 79 94 ef 3e
       0.29241958 -0.47182465 -0.4437406 0.46792963
0001b0 69 fb 78 3e 94 fd ff 3e 15 9a 17 3f e9 d8 94 bd
       0.24314655 0.49998152 0.59219486 -0.07267935
0001c0 27 8d f7 be d5 aa 26 be 5b 76 42 be df 48 17 3f
       -0.48349878 -0.16276105 -0.18990462 0.5909557
0001d0 97 e6 1a be 77 cc 81 be fa f8 04 3f 34 62 f9 bd
       -0.15127026 -0.25351307 0.5194241 -0.12176934
0001e0 e5 8c a4 be 63 24 0a 3e ae 30 cd be ef 2e 26 be
       -0.32138744 0.13490443 -0.40076202 -0.16228841
0001f0 3f da ef be e4 a3 9a be 04 d5 c8 bd 10 9c c1 3e
       -0.46846196 -0.30203164 -0.098062545 0.3781438
000200 1d d7 96 3e c7 c2 a9 be 1c 89 92 3e d5 df 81 be
       0.29460993 -0.33156416 0.2862023 -0.25366083
000210 fb 5c 09 3f 80 5e 19 bf 43 c1 8d be 6d 22 a9 be
       0.536575 -0.5990982 -0.2768651 -0.33034077
000220 22 bc 05 bd e6 55 c4 be 14 75 0e bd 02 a5 cf 3e
       -0.03265012 -0.38346785 -0.034779623 0.40555578
000230 4e 0e 60 bd c1 58 d6 3e f2 fd a7 be ed 86 ca 3e
       -0.054701142 0.4186459 -0.32810932 0.39556065
000240 32 1a ff 3e eb 8e 94 3e 97 a5 1b 3f d0 75 b1 3e
       0.49824673 0.29015288 0.60799545 0.34660196
000250 b3 fd cd be e3 f4 14 bf d9 d6 cd 3e 87 2b f9 be
       -0.4023262 -0.5818617 0.40202978 -0.4866602
000260 f8 95 08 bf 41 f1 84 3e a7 e1 24 3f 50 eb 00 bf
       -0.53353834 0.25965312 0.6440682 -0.5035906
000270 c5 9e ca 3e f5 7a f4 3e ee f7 6e 3d 5c 07 a4 be
       0.39574257 0.4775006 0.058341913 -0.32036865
000280 ab a3 f5 be 81 de 16 bf 3b 3c 98 bd d9 32 cd bc
       -0.4797643 -0.58933264 -0.07433363 -0.02504866
000290 ff ba de be a7 8d d0 3e eb 75 08 bf 18 c6 2b bf
       -0.43502042 0.40733072 -0.5330493 -0.6709914
0002a0 35 2a d5 3e bb 99 ab 3e 50 ba bd 3e 91 11 c8 bd
       0.41633764 0.33515725 0.37056208 -0.097689755
0002b0 02 96 ff be d2 75 29 be 12 de ba be a9 bb 5e 3e
       -0.49919134 -0.16548851 -0.3649755 0.21751274
0002c0 c7 1f ee 3e 6f ee 10 3f ce 67 0b 3f 81 08 88 be
       0.4650862 0.5661382 0.5445527 -0.26568988
0002d0 f8 33 eb bd 48 7e e5 bd a5 ec 7c 3e 20 cf 2a be
       -0.114845216 -0.11205727 0.24699648 -0.16680574
0002e0 51 17 4d 3e cd 6c e0 3d e8 95 22 bf 1e 1a 88 bd
       0.20028426 0.10958252 -0.6350999 -0.066456065
0002f0 6c 7d 64 be c1 d7 c0 3e 30 7c b7 3e d0 b7 c3 be
       -0.2231347 0.37664607 0.35836935 -0.38226175
000300 07 f9 11 3f e5 ff 7e 3d 5e 42 86 3e 1a 9f e8 3e
       0.5702061 0.06225576 0.2622251 0.45433885
000310 b7 45 5d 3e fb c7 28 3f f6 bf 67 3c 15 70 06 3f
       0.21608625 0.65930146 0.014144888 0.52514774
000320 95 f0 f0 be 49 cb 14 3f ad e3 bd be 51 d7 34 3e
       -0.4705855 0.5812269 -0.37087765 0.17660262
000330 d0 b1 36 3e 16 2b 06 be 55 c1 2e be b2 07 c1 be
       0.17841268 -0.13102373 -0.17065938 -0.37701184
000340 fe dc 7f 3e 98 26 82 3e 64 f0 9b be 6a d3 02 be
       0.24986646 0.2542007 -0.3045684 -0.1277596
000350 47 57 c3 3e da fb 2d bf 0a c3 90 bd ca e2 64 3d
       0.38152525 -0.6796242 -0.07068451 0.055880345
000360 b7 c5 f2 be 8c f6 27 3f b2 df 0c be e5 d0 10 3e
       -0.4741647 0.65610576 -0.13757208 0.14142187
000370 8d bc a0 be d0 07 b8 be 34 62 8c be f4 0c 0c 3f
       -0.31393853 -0.3594346 -0.27418673 0.54707265
000380 48 2d a0 be a4 61 a8 3d 1c 4d 29 3e af e8 0f be
       -0.31284547 0.082217485 0.16533321 -0.14053605
000390 4b 1d c8 3e 26 f3 b5 be 8e 17 fa 3e 57 1e c2 be
       0.3908485 -0.3553707 0.48846096 -0.37913772
0003a0 01 0e 16 3f 7d 4e fe 3e 5b 2f c1 be 9c 3e d8 3e
       0.5861512 0.49669257 -0.37731442 0.42235267
0003b0 6c 98 13 bf 8e db c7 be 4b 31 29 3e e0 4f f0 3e
       -0.5765445 -0.39034694 0.1652271 0.4693594
0003c0 d6 ad 12 bf 7a 20 ca 3d fb 5d e9 3e 49 59 04 bf
       -0.572965 0.09869476 0.45579514 -0.5169874
0003d0 0b a8 1d be 6f 40 2c 3f b7 f8 62 be 62 bf f3 3e
       -0.15396135 0.6728582 -0.2216519 0.4760695
0003e0 ed b0 39 bf e1 e6 ab be 74 06 a8 be d9 d8 17 be
       -0.7253559 -0.33574584 -0.32817423 -0.14828815
0003f0 70 58 c7 3d 60 6b 0d bf 78 2b a1 3e 97 ef 03 bf
       0.09733665 -0.55241966 0.31478477 -0.5153746

tfl.pseudo_qconst i1 [64, 128]
000000 f5 12 1d 0e 3b c8 3f 0f 0a fc ff 15 f9 e8 f5 f3
       -11 18 29 14 59 -56 63 15 10 -4 -1 21 -7 -24 -11 -13
000010 f2 ee 2d 16 f3 12 f2 25 ef 1b fc cb 06 d7 f3 db
       -14 -18 45 22 -13 18 -14 37 -17 27 -4 -53 6 -41 -13 -37
000020 ed 19 d7 f2 41 09 f4 35 fe 39 20 ff eb 1e 03 04
       -19 25 -41 -14 65 9 -12 53 -2 57 32 -1 -21 30 3 4
000030 f5 f6 f1 d8 31 13 ea f3 d6 ff 1f 11 16 09 eb e6
       -11 -10 -15 -40 49 19 -22 -13 -42 -1 31 17 22 9 -21 -26
000040 2b 24 e7 e6 0c fe f8 01 21 f4 2f ff 00 0f f1 cc
       43 36 -25 -26 12 -2 -8 1 33 -12 47 -1 0 15 -15 -52
000050 2c f4 fb e0 4d fe 0b 06 19 1b da 16 36 13 da d1
       44 -12 -5 -32 77 -2 11 6 25 27 -38 22 54 19 -38 -47
000060 f6 1f 0f eb cf 01 12 f0 00 3e 1f de ea f0 1c 25
       -10 31 15 -21 -49 1 18 -16 0 62 31 -34 -22 -16 28 37
000070 dc e5 41 fc ff f3 e3 da f3 7f 29 02 1d 16 ea d7
       -36 -27 65 -4 -1 -13 -29 -38 -13 127 41 2 29 22 -22 -41
000080 67 2c 32 e7 b9 dc e5 0e e2 49 43 72 d3 e5 f3 53
       103 44 50 -25 -71 -36 -27 14 -30 73 67 114 -45 -27 -13 83
000090 f7 e2 bb 01 32 df d9 33 c9 6f 1c 47 27 de fb f5
       -9 -30 -69 1 50 -33 -39 51 -55 111 28 71 39 -34 -5 -11
0000a0 06 d6 e3 c0 15 64 eb d4 ed f8 eb a8 14 fe 8e c6
       6 -42 -29 -64 21 100 -21 -44 -19 -8 -21 -88 20 -2 -114 -58
0000b0 1f 19 28 39 b7 e0 db 38 55 05 e9 5f 47 fa 12 f6
       31 25 40 57 -73 -32 -37 56 85 5 -23 95 71 -6 18 -10
0000c0 0c 37 52 b3 bc 3c f7 b7 bb fd e2 f8 4e 42 03 04
       12 55 82 -77 -68 60 -9 -73 -69 -3 -30 -8 78 66 3 4
0000d0 de b7 a9 a8 33 a6 7b 05 48 13 50 fb 06 bf 32 2e
       -34 -73 -87 -88 51 -90 123 5 72 19 80 -5 6 -65 50 46
0000e0 cb d4 0e 4e ff 04 c0 c5 e7 37 1e 0a f6 bd 36 15
       -53 -44 14 78 -1 4 -64 -59 -25 55 30 10 -10 -67 54 21
0000f0 7f f9 43 af ed f0 04 f9 42 ab 0a e2 29 60 c5 df
       127 -7 67 -81 -19 -16 4 -7 66 -85 10 -30 41 96 -59 -33

sequential_1/dense_1/MatMul i1 [128, 114]
000000 c0 42 2f 09 cd f4 f9 4b d8 2d 88 1b c6 19 cf cd
       -64 66 47 9 -51 -12 -7 75 -40 45 -120 27 -58 25 -49 -51
000010 d9 ea 6d 46 ec c6 ee 03 c7 d8 c6 d9 cb 6a 09 53
       -39 -22 109 70 -20 -58 -18 3 -57 -40 -58 -39 -53 106 9 83
000020 2a de c7 30 e0 2f d2 1a e7 1e f7 3f 06 cb f2 fd
       42 -34 -57 48 -32 47 -46 26 -25 30 -9 63 6 -53 -14 -3
000030 1c 0d 18 f5 e6 e6 d1 db b3 e2 7f 6a eb 00 b8 54
       28 13 24 -11 -26 -26 -47 -37 -77 -30 127 106 -21 0 -72 84
000040 15 0b 40 2d d3 56 e0 14 3b 9c e0 d5 4e 40 2d ea
       21 11 64 45 -45 86 -32 20 59 -100 -32 -43 78 64 45 -22
000050 c9 bc c6 d5 de 2d fe c6 ba c2 db c6 ec d3 e9 1b
       -55 -68 -58 -43 -34 45 -2 -58 -70 -62 -37 -58 -20 -45 -23 27
000060 62 06 2b cb d6 ed b7 2e c8 41 1b ce e2 b7 f2 04
       98 6 43 -53 -42 -19 -73 46 -56 65 27 -50 -30 -73 -14 4
000070 08 03 d5 d7 2b 46 1b c5 1f f8 ee 28 dc da ee f3
       8 3 -43 -41 43 70 27 -59 31 -8 -18 40 -36 -38 -18 -13
000080 e6 08 e9 42 e3 00 cf 21 d6 0e e0 06 08 d6 fc 22
       -26 8 -23 66 -29 0 -49 33 -42 14 -32 6 8 -42 -4 34
000090 26 1b 05 dc d2 e4 0e 3b 7f ed d7 3a d8 17 00 e0
       38 27 5 -36 -46 -28 14 59 127 -19 -41 58 -40 23 0 -32
0000a0 ff d3 cc e5 1b f5 56 7c d4 e7 27 2b 2f de 0d d1
       -1 -45 -52 -27 27 -11 86 124 -44 -25 39 43 47 -34 13 -47
0000b0 04 f7 40 ee 08 2e 01 0d cd 13 1e f0 e3 06 1a d8
       4 -9 64 -18 8 46 1 13 -51 19 30 -16 -29 6 26 -40
0000c0 45 e4 ff df 09 db ee df ee 03 22 ec 0e d6 ea e9
       69 -28 -1 -33 9 -37 -18 -33 -18 3 34 -20 14 -42 -22 -23
0000d0 68 15 16 04 d1 08 e8 d6 ff 32 d7 1a 02 ec f4 0d
       104 21 22 4 -47 8 -24 -42 -1 50 -41 26 2 -20 -12 13
0000e0 d6 e4 ff cf d5 ea 1e 07 d8 1d fd c6 dd e6 cf d6
       -42 -28 -1 -49 -43 -22 30 7 -40 29 -3 -58 -35 -26 -49 -42
0000f0 7f 11 fe 3c 12 03 d6 f0 f6 23 d8 09 04 eb 07 e3
       127 17 -2 60 18 3 -42 -16 -10 35 -40 9 4 -21 7 -29
